model.pt (torch, 95104 bytes, 4 tensors)

weight f4 [1433, 16]
-0.5685134 -0.24907655 0.9397767 0.76610225 -0.7731077 0.8199991 -1.0139226 0.7641514
0.64701927 0.8550625 0.77044547 -0.5933147 0.56688553 0.5709403 0.12679152 -0.5664925
-0.6421302 0.9163603 -0.5993481 0.3421842 -0.7845917 0.5963844 -0.9222034 0.862948
0.6426717 0.6658789 0.82916105 -0.7851336 0.86448604 0.83240277 0.7651693 -0.8378438
-0.79515773 0.8550065 0.9300862 0.76886487 -0.80569315 0.9053001 -0.5243475 0.862277
0.99957776 0.6880585 0.78153384 -0.24481185 -0.7920934 -0.8068433 0.8237162 -0.9173782
-0.9003765 0.099814795 0.8002491 0.13170427 0.3531875 0.7414075 0.53374857 0.55224186
0.8201586 -0.62941056 0.39673012 0.6854453 0.16221829 -0.5739479 0.9810695 0.85427415
0.81472117 0.6714038 -0.72583675 -0.606293 -0.91182715 -0.8111356 0.9736093 -0.7805856
0.8861967 0.9008112 -0.7742553 -0.74349916 0.86249423 0.23437713 -0.8768793 -0.71939635
0.8052786 0.9976214 -0.8751601 -0.7303102 0.85238934 -0.8431675 1.0127358 -0.26338914
-0.77942485 -0.94945824 -0.46963313 -0.21043013 -0.5435186 0.8485518 0.6657553 0.6979182
-0.73511595 1.0079463 0.82520163 0.53012353 0.66902936 0.867555 0.7735715 0.10780896
1.00961 -1.1081594 0.7500463 0.81729436 -0.75462496 -0.852368 0.24383406 -0.40032503
-0.79847795 0.8904875 0.23662853 0.41049504 -0.79843086 0.890723 -0.9384447 0.6731575
0.82628053 0.7649045 0.8496517 -0.7905322 0.94216967 0.78854984 0.9280411 -0.9304758
0.8384445 1.0596188 -0.25732306 0.6213762 -0.8472196 0.4769396 1.0257006 0.6120421
0.89844173 -0.5502019 0.8130367 0.08777062 1.0351074 -0.26434633 -1.0101348 -1.022255
-0.58386326 0.811649 0.7001804 0.8348232 -0.6816813 0.73892564 -0.6479878 0.71782166
0.6196973 0.12815867 0.6785556 -0.654731 0.7134628 0.81362975 0.6300568 -0.7179642
0.7382084 1.0693252 0.68048084 0.8207509 0.8399182 0.6177768 0.27567658 0.76029867
0.46650085 -0.0772431 0.81063205 0.5670081 0.5100307 1.0287594 0.7256827 -0.8378071
0.74755824 0.26143938 0.6663718 0.865151 -0.018841967 0.70007455 -0.9506944 0.7775108
-0.88826203 0.90357524 0.7868053 0.62638944 0.7577015 -0.4874891 -0.8536901 -0.67645097
0.6473681 -0.82186675 0.11939143 0.4849206 -0.9342058 0.13800035 0.7453523 -0.6282944
0.8164276 0.89845276 -0.796099 0.10193822 -0.33149886 -0.82510704 -0.7395273 -0.6391358
0.44027847 0.9260378 -0.93482906 -0.82292444 0.2936864 -0.88860124 -0.8503991 -0.97178143
-0.82390463 -0.26644054 0.3703043 -0.88269484 0.6504604 0.86584246 0.8542077 1.0462306
-0.5981293 0.27129936 0.81319976 0.9147201 -0.75468475 0.7897134 -0.8868955 0.30077702
0.4651489 0.81871945 0.8686173 -0.8088152 0.8384249 0.78476435 0.6285658 -0.9466332
0.44109043 -0.7020652 0.24885596 0.36229056 0.2704484 0.31052634 -0.640099 0.3239943
-0.5372036 0.89991343 -0.83191466 0.48882893 -0.40030405 -0.5010257 -0.59034467 0.8809047
00000000: 188a 11bf ec0d 7fbe 3595 703f 471f 443f
00000010: 63ea 45bf 76eb 513f 37c8 81bf 6d9f 433f
00000020: 0ea3 253f 60e5 5a3f ea3b 453f 79e3 17bf
00000030: 691f 113f 2529 123f a3d5 013e a705 11bf
00000040: a562 24bf 9796 6a3f e16e 19bf c432 af3e
00000050: 00db 48bf a6ac 183f 8615 6cbf 29ea 5c3f
00000060: 2286 243f 0a77 2a3f e643 543f 84fe 48bf
00000070: f54e 5d3f 5918 553f 23e2 433f ee7c 56bf
00000080: 758f 4bbf b5e1 5a3f 211a 6e3f 54d4 443f
00000090: e841 4ebf bfc1 673f a33b 06bf 2fbe 5c3f
000000a0: 54e4 7f3f 9a24 303f 9a12 483f f5af 7abe
000000b0: a2c6 4abf 488d 4ebf 11df 523f 4cd9 6abf
000000c0: 137f 66bf b36b cc3d 20dd 4c3f 7cdd 063e
000000d0: fed4 b43e e2cc 3d3f bfa3 083f b95f 0d3f
000000e0: eaf5 513f 0d21 21bf 3620 cb3e 5879 2f3f
000000f0: 8d1c 263e 40ee 12bf 5f27 7b3f b6b1 5a3f
00000100: 9191 503f 1fe1 2b3f 70d0 39bf 0536 1bbf
00000110: 816d 69bf 95a6 4fbf 763e 793f 75d4 47bf
00000120: c9dd 623f 909b 663f 9835 46bf f655 3ebf
00000130: 6ccc 5c3f 8f00 703e 297b 60bf 5c2a 38bf
00000140: bd26 4e3f 1e64 7f3f 7e0a 60bf 9cf5 3abf
00000150: 3036 5a3f d3d9 57bf 54a1 813f f1da 86be
00000160: 6388 47bf b20f 73bf c173 f0be ff7a 57be
00000170: 0924 0bbf b13a 593f f06e 2a3f c4aa 323f
00000180: 8f30 3cbf 6204 813f 6a40 533f 2db6 073f
00000190: 8245 2b3f 1618 5e3f c808 463f f2ca dc3d
000001a0: e73a 813f 2bd8 8dbf 0903 403f 343a 513f
000001b0: 1a2f 41bf ca34 5abf a3af 793e 67f7 ccbe
000001c0: 0d69 4cbf fdf6 633f c04e 723e 682c d23e
000001d0: f765 4cbf 6c06 643f e93d 70bf 0d54 2c3f
000001e0: 1f87 533f c8d0 433f c682 593f 5160 4abf
000001f0: 0832 713f 67de 493f 1a94 6d3f a933 6ebf
00000200: 4ca4 563f 97a1 873f d9bf 83be 8312 1f3f
00000210: 62e3 58bf 6d31 f43e 284a 833f cbae 1c3f
00000220: 4700 663f 08da 0cbf 2c23 503f 15c1 b33d
00000230: 667e 843f 6758 87be 194c 81bf 40d9 82bf
00000240: 1078 15bf 3bc8 4f3f 063f 333f f9b6 553f
00000250: aa82 2ebf 3b2a 3d3f 87e2 25bf 29c3 373f
00000260: 7ba4 1e3f 073c 033e d2b5 2d3f 739c 27bf
00000270: 80a5 363f 0a4a 503f 674b 213f 80cc 37bf
00000280: 3afb 3c3f a6df 883f fe33 2e3f bb1c 523f
00000290: e104 573f 9f26 1e3f 7b25 8d3e efa2 423f
000002a0: 33d9 ee3e a131 9ebd 9585 4f3f 7127 113f
000002b0: 5f91 023f 63ae 833f 57c6 393f 877a 56bf
000002c0: fa5f 3f3f 62db 853e 5897 2a3f 897a 5d3f
000002d0: 785a 9abc 1638 333f b560 73bf f30a 473f
000002e0: 2465 63bf b550 673f 126c 493f 0f5b 203f
000002f0: baf8 413f 2c98 f9be 6f8b 5abf e42b 2dbf
00000300: eab9 253f dc65 52bf 7e83 f43d 8347 f83e
00000310: 1c28 6fbf f74f 0d3e 69cf 3e3f e7d7 20bf
00000320: 6601 513f 0001 663f 25cd 4bbf fcc4 d03d
00000330: 38ba a9be 373a 53bf a951 3dbf 679e 23bf
00000340: 2e6c e13e d010 6d3f f550 6fbf 2dab 52bf
00000350: 105e 963e 5f7b 63bf c1b3 59bf abc6 78bf
00000360: 6aeb 52bf e56a 88be 8698 bd3e 4af8 61bf
00000370: 9384 263f daa7 5d3f 5bad 5a3f e2ea 853f
00000380: 001f 19bf c0e7 8a3e dc2d 503f 192b 6a3f
00000390: 0533 41bf a82a 4a3f 950b 63bf 72ff 993e
000003a0: ff27 ee3e 9997 513f b45d 5e3f 830e 4fbf
000003b0: 04a3 563f 51e6 483f b0e9 203f 8e56 72bf
000003c0: 9bd6 e13e 8cba 33bf 19d4 7e3e 267e b93e
000003d0: 3678 8a3e 4ffd 9e3e 87dd 23bf 95e2 a53e
000003e0: 2d86 09bf ba60 663f 5cf8 54bf c947 fa3e
000003f0: a7f4 ccbe 3843 00bf d420 17bf f882 613f

bias f4 [16]
0.42053288 0.332314 0.25523213 0.18959433 0.28875297 0.29739636 0.45595747 0.20970212
0.31173277 0.89644647 0.20446245 0.29440954 0.23204172 0.7116698 0.6405991 0.95824933
00000000: 1650 d73e 1025 aa3e c9ad 823e 0425 423e
00000010: 6ed7 933e 5644 983e 4273 e93e 27bc 563e
00000020: 709b 9f3e 847d 653f 9b5e 513e d9bc 963e
00000030: 589c 6d3e fe2f 363f 4dfe 233f d44f 753f

weight f4 [16, 7]
-1.5131596 -1.2923242 0.8672053 1.1096501 1.3077526 1.2049237 -0.97700953 -0.8931377
1.2808639 1.4280932 1.4056317 -0.8636491 1.1778175 -0.72871727 1.351969 1.0764756
1.301822 -1.0095598 0.8177621 -1.2830106 -1.0691198 -1.1250905 1.1107213 1.1592454
-1.1265737 1.3449618 -1.0196776 -1.0095267 -1.1598972 -1.4202156 1.3623466 1.1212147
1.102237 -1.0968531 1.0898402 1.1107477 1.141278 1.1672969 -1.2214725 0.9048775
-0.9975297 -0.8967235 -0.9538712 -1.0397784 1.2213361 -1.0121989 -1.0277836 1.0796728
1.2852293 -1.4446578 1.189739 1.2863829 -1.1101959 1.35006 -1.2837951 1.17835
1.2161689 0.8975169 1.4295596 -1.3730881 -1.3183714 1.2421143 1.2930919 1.4581757
0.4592765 -1.1438478 -0.8612522 1.1452284 1.4023235 -1.2635056 -1.1190213 1.4266385
1.2046684 -0.83372605 0.81274945 -1.1514887 -1.2517878 0.8593314 -1.3200892 1.3919796
-1.12047 1.3406099 -1.1253849 1.096598 -1.2446253 1.3420575 -1.007108 -0.86497754
-0.9544686 1.1087185 1.4205228 -1.1009012 1.3210032 -1.3396776 1.4353498 -1.1012405
0.9810563 0.8964744 1.2327414 0.8912773 -1.0288953 1.4337398 -1.1860347 -1.4178692
0.9386379 1.4501635 -0.9762716 -0.8110861 1.4374024 1.1691737 -1.109183 1.0412889
00000000: 37af c1bf e16a a5bf 2b01 5e3f 0409 8e3f
00000010: 7064 a73f f13a 9a3f 4c1d 7abf aca4 64bf
00000020: 59f3 a33f c2cb b63f bdeb b33f 1b18 5dbf
00000030: b9c2 963f 378d 3abf 520d ad3f f4c9 893f
00000040: 1aa2 a63f 4139 81bf db58 513f b139 a4bf
00000050: ebd8 88bf f702 90bf 1e2c 8e3f 2762 943f
00000060: 9133 90bf b527 ac3f cc84 82bf 2c38 81bf
00000070: 8377 94bf a0c9 b5bf 6061 ae3f f783 8f3f
00000080: 1a16 8d3f af65 8cbf e27f 8b3f fb2c 8e3f
00000090: 6615 923f fc69 953f 3659 9cbf 0da6 673f
000000a0: 1b5e 7fbf ac8f 65bf e730 74bf 7517 85bf
000000b0: be54 9c3f bc8f 81bf 6a8e 83bf b832 8a3f
000000c0: 6582 a43f 8cea b8bf 5e49 983f 32a8 a43f
000000d0: e61a 8ebf c4ce ac3f 6653 a4bf 2cd4 963f
000000e0: 6cab 9b3f abc3 653f cffb b63f 5ac1 afbf
000000f0: 65c0 a8bf 9afd 9e3f 0984 a53f 80a5 ba3f
00000100: 4a26 eb3e 9b69 92bf 067b 5cbf d896 923f
00000110: 567f b33f 8dba a1bf 173c 8fbf 179c b63f
00000120: 9332 9a3f 126f 55bf 5910 503f fb63 93bf
00000130: 953a a0bf 25fd 5b3f aff8 a8bf 632c b23f
00000140: 906b 8fbf 1b99 ab3f 9d0c 90bf 535d 8c3f
00000150: e24f 9fbf 8ac8 ab3f eae8 80bf 2b6f 5dbf
00000160: 0e58 74bf 7dea 8d3f b1d3 b53f 55ea 8cbf
00000170: a216 a93f 8e7a abbf 8bb9 b73f 73f5 8cbf
00000180: 8126 7b3f 597f 653f 78ca 9d3f c02a 643f
00000190: d7b2 83bf c984 b73f fccf 97bf bd7c b5bf
000001a0: 934a 703f f59e b93f f0ec 79bf 57a3 4fbf
000001b0: cdfc b73f 7ca7 953f b5f9 8dbf f448 853f

bias f4 [7]
0.14119588 -0.7174332 -0.062281307 0.44706577 -0.6792428 0.8162851 -0.72703016
00000000: a795 103e b4a9 37bf af1a 7fbd cee5 e43e
00000010: dbe2 2dbf 0ff8 503f a61e 3abf
